…
on=&#39;relu&#39;)(decoded) autoencoder = Model(input_layer, output_layer) autoencoder.compile(optimizer=&quot;adadelta&quot;, loss=&quot;mse&quot;) return autoencoder . Pass the shape of your X_train . encoder = autoencoder(train[features].shape[1]) . Keras model Summary . encoder.summary() . Model: &#34;model&#34; _________________________________________________________________ Layer (type) Output Shape Param # ================================================================= input_1 (InputLayer) [(None, 30)] 0 _________________________________________________________________ dense (Dense) (None, 100) 3100 _________________________________________________________________ dense_1 (Dense) (None, 50) 5050 _________________________________________________________________ dense_2 (Dense) (None, 50) 2550 _________________________________________________________________ dense_3 (Dense) (None, 100) 5100 _________________________________________________________________ dense_4 (Dense) (None, 30) 3030 ================================================================= Total params: 18,830 Trainable params: 18,830 Non-trainable params: 0 _________________________________________________________________ . Let&#39;s normalize our data . scaler = preprocessing.MinMaxScaler().fit(train[features].values) . scaled_data = df.copy() scaled_data[features] = scaler.transform(df[features]) fraud, non_fraud 
…
